policy.pth (torch, 16382 bytes, 12 tensors)

log_std f4 [3]
0	0xc025663a	-2.5843644
1	0xbf84ad3c	-1.0365367
2	0xbf9a9a9b	-1.2078432

mlp_extractor.policy_net.0.weight f4 [32, 11]
0	0x3d813493	0.06308856
1	0x3f3e94e0	0.74445915
2	0x3e18b09d	0.14911123
3	0x3da93ccb	0.082635485
4	0xbe25c4dc	-0.16188377
5	0xbe222fc4	-0.15838534
6	0x3e2aaa68	0.16666567
7	0xbee86fd3	-0.45397815
8	0x3e22f9b4	0.15915567
9	0x3d5e4090	0.05426079
10	0xbc241e10	-0.010016933
11	0x3e148198	0.14502561
12	0x3e93d1d3	0.2887102
13	0xbdf594a5	-0.11991242
14	0x3dc9656f	0.098338
15	0xbdb2b08f	-0.08725082
16	0xbf2cfc3a	-0.6757237
17	0xbeb5e743	-0.35528
18	0x38c1091b	9.204653e-05
19	0x3e94c2de	0.29054922
20	0x3e135fc0	0.14391994
21	0x3f03c294	0.5146878
22	0x3eb3d6c5	0.35124794
23	0x3d377d97	0.044797506
24	0xbdeec296	-0.11658208
25	0xbe3fbd55	-0.18724568
26	0xbeaa0e56	-0.33214062
27	0x3e300058	0.17187631
28	0x3ebd287d	0.36944953
29	0x3e43193e	0.19052598
30	0xbd2e8cce	-0.04261475
31	0xbea790dd	-0.3272771
32	0xbddd88e8	-0.108171284
33	0x3eaec558	0.34134936
34	0xbdf43630	-0.11924398
35	0xbde87f4d	-0.11352406
36	0xbe2d506c	-0.1692521
37	0x3e3cda18	0.18442571
38	0xbe1874a9	-0.14888252
39	0x3e335eb8	0.17516601
40	0xbd8284db	-0.063729964
41	0xbd6b9d69	-0.057523165
42	0x3e5e68a2	0.21719602
43	0xbd08a7fe	-0.033363335
44	0xbe8b586b	-0.27215895
45	0xbddd71ef	-0.10812747
46	0xbde01873	-0.10942163
47	0x3d1bbbb6	0.038020812
48	0xbced6318	-0.028977916
49	0xbae0fb39	-0.0017164714
50	0x3e2a7ef1	0.16649987
51	0xbe2ae47c	-0.16688722
52	0x3ebeafa5	0.3724338
53	0xbe330964	-0.17484051
54	0xbd688b68	-0.056773573
55	0xbdec41b5	-0.1153597
56	0x3e8d6070	0.27612638
57	0x3e8d89cf	0.27644202
58	0x3e9ad310	0.30239153
59	0x3e79c9b6	0.24393353
60	0xbe2c6d54	-0.1683858
61	0xbe744969	-0.23856129
62	0x3e8e71b0	0.27821112
63	0x3cd4bcfb	0.02596902
64	0x3e8544aa	0.2602895
65	0xbe5904a7	-0.21193181
66	0xbdb9db70	-0.090750575
67	0xbec17fe8	-0.37792897
68	0xbe6f65d4	-0.23378688
69	0x3de61023	0.112335466
70	0x3dc16ad5	0.09444205
71	0xbcd2f1e6	-0.025750112
72	0xbdec48bb	-0.1153731
73	0xbed77b21	-0.42086127
74	0x3e791447	0.24324141
75	0x3d360804	0.044441238
76	0xbe3e46b9	-0.18581666
77	0xbe8a1a4b	-0.26973185
78	0xbebb0648	-0.3652823
79	0xbe345ed1	-0.17614295
80	0xbdd5d54a	-0.10441072
81	0x3eef7ca5	0.46774784
82	0xbb8c82eb	-0.0042880676
83	0xbd63c6d3	-0.055609535
84	0xbe25ad6d	-0.16179438
85	0x3e1c4519	0.15260734
86	0xbdf1dd92	-0.11809839
87	0xbe9397c5	-0.28826728
88	0xbdc0ad68	-0.094080746
89	0xbdb1d0e0	-0.08682418
90	0x3d565c17	0.052333917
91	0x3e420e0b	0.1895067
92	0x3e187177	0.14887033
93	0xbdcf3502	-0.10117532
94	0xbd1843f2	-0.037174173
95	0xbed86d88	-0.42271066
96	0xbf2e0f46	-0.67992055
97	0xbda33f23	-0.07971027
98	0x3f337015	0.700929
99	0xbf05db97	-0.5228819
100	0x3e6296b3	0.221278
101	0xbe3fa795	-0.18716271
102	0x3ea1c518	0.31595683
103	0xbe8332e6	-0.2562477
104	0xbb595f90	-0.0033168532
105	0xbe99aca7	-0.30014536
106	0x3e224c71	0.15849473
107	0xbe536c46	-0.20646772
108	0xbca2eb11	-0.019887479
109	0xbd9ab82a	-0.07554658
110	0x3e1db9b1	0.15402867
111	0xbf2b0a4b	-0.6681258
112	0x3e2c47ad	0.16824217
113	0x3d0c34f8	0.034230202
114	0x3e422802	0.18960574
115	0x3ebb61aa	0.3659795
116	0xbe4a7578	-0.19771373
117	0xbeb185a9	-0.34672287
118	0x3d822356	0.06354396
119	0xbdb7485c	-0.08949348
120	0xbdc2dbd8	-0.09514588
121	0x3dcb52b1	0.099278815
122	0xbe42dd51	-0.19029738
123	0xbecb7f71	-0.39745668
124	0x3d9463c3	0.072455905
125	0x3edc2f3c	0.43004787
126	0x3e2fc512	0.1716502
127	0xbe5dbb44	-0.21653467
128	0x3d3d47d7	0.04621109
129	0xbe8d9c90	-0.2765851
130	0xbda13685	-0.07871727
131	0xbeb119c8	-0.34589982
132	0x3dab7eb6	0.083737776
133	0x3c38aa3d	0.011271057
134	0xbea8de4a	-0.32982093
135	0xbe63c89e	-0.22244498
136	0xbebc912c	-0.36829507
137	0xbe91a5bd	-0.2844676
138	0x3d7d00ee	0.061768465
139	0xbe9b884a	-0.30377418
140	0xbe3339df	-0.17502545
141	0x3f21d435	0.6321443
142	0xbd8828c8	-0.066484034
143	0x3c6122b5	0.013741185
144	0x3e17b148	0.14813721
145	0xbecf10ac	-0.40442407
146	0xbe2b3738	-0.16720283
147	0xbe1971d5	-0.1498483
148	0xbe81de49	-0.25364903
149	0xbd59a4b8	-0.053135604
150	0x3e3dc05b	0.18530409
151	0xbd6c37e8	-0.057670504
152	0x3e5a92db	0.21345083
153	0xbd67c6bc	-0.056586012
154	0x3e14474f	0.14480327
155	0x3de75c2d	0.11296878
156	0xbd0f634b	-0.035006803
157	0xbe75f800	-0.24020386
158	0xbe7e5261	-0.24836113
159	0x3e869177	0.26282856
160	0x3ea162a7	0.31520578
161	0xbeecb720	-0.46233463
162	0xbad76c5d	-0.0016435493
163	0x3e27ff58	0.16406
164	0xbe0fb58c	-0.14034098
165	0xbe752e95	-0.23943551
166	0x3de4707a	0.11154266
167	0x3dd65e4c	0.104672045
168	0xbdc7d9a6	-0.0975831
169	0xbf451b9b	-0.7699525
170	0x3e1cf312	0.15327099
171	0xbe2860bd	-0.16443153
172	0x3d51d28c	0.051226184
173	0xbde93fc7	-0.11389118
174	0xbdde21f6	-0.10846321
175	0x3e94408e	0.289555
176	0x3e136dd7	0.1439737
177	0x3e6e9405	0.23298652
178	0xbde0e4ae	-0.10981117
179	0x3f4563b2	0.7710525
180	0x3d1066d9	0.035254333
181	0xbe520e2e	-0.20513222
182	0x3e301e48	0.17199051
183	0xbe6cd203	-0.23126988
184	0x3e1fa2f6	0.15589508
185	0xbdf63e80	-0.1202364
186	0xbdff68bb	-0.124711476
187	0xbe7376bb	-0.23775761
188	0x3cfdb211	0.030968698
189	0x3d3d3812	0.04619605
190	0xbdac6865	-0.08418349
191	0x3ebcde11	0.36888173
192	0xbd0bb164	-0.03410472
193	0xbeb4bf5b	-0.35302243
194	0xbbe86ae0	-0.0070928186
195	0x3ebe6382	0.37185293
196	0x3d20d105	0.039261837
197	0x3ec6312f	0.387094
198	0x3dcdcce6	0.10048847
199	0x3d988252	0.074467316
200	0xbe488fda	-0.19586125
201	0x3e6f31ce	0.23358843
202	0xbe13773e	-0.14400956
203	0xbe236e38	-0.15960014
204	0x3ec5bfad	0.386228
205	0x3d2f14c2	0.042744406
206	0xbde02e52	-0.10946335
207	0x3e97c3a6	0.29641455
208	0x3ecd5f2c	0.40111673
209	0xbe341568	-0.17586291
210	0xbef2e68c	-0.47441518
211	0x3e03a77d	0.1285686
212	0x3e777df6	0.24169144
213	0x3e3d8e5a	0.18511334
214	0xbe32c370	-0.17457366
215	0x3df60d7b	0.1201429
216	0x3d48cec2	0.049025305
217	0x3edc029c	0.4297074
218	0x3e252a79	0.16129483
219	0x3dc2048e	0.09473525
220	0xbd5804b2	-0.052738853
221	0x3e9a73b9	0.30166414
222	0xbeba3b21	-0.36373237
223	0xbdadda1d	-0.084888674
224	0xbe3447d0	-0.1760552
225	0x3e8182e9	0.2529519
226	0xbe3b53ac	-0.18293637
227	0xbeea3b68	-0.45748448
228	0x3e1c0a25	0.15238245
229	0xbecc115b	-0.3985699
230	0x3ec8ca99	0.3921707
231	0xbf001916	-0.5003828
232	0xbe524cfc	-0.2053718
233	0xbdee4754	-0.116346985
234	0x3dca4d38	0.098780096
235	0x3d3dae0d	0.046308566
236	0xbe01dd24	-0.12682015
237	0x3e57e7b0	0.21084476
238	0xbdd56e02	-0.10421373
239	0x3ebec1d9	0.3725727
240	0xbe915001	-0.2838135
241	0x3e0ce428	0.1375891
242	0xbe1f1558	-0.15535486
243	0x3e48c2eb	0.19605605
244	0x3e5f6cf8	0.21818912
245	0xbeccb0a0	-0.39978504
246	0x3ed774ac	0.420812
247	0x3d430bba	0.047618605
248	0x3ea4cd56	0.3218791
249	0x3e3d0b14	0.18461257
250	0xbdb1ad59	-0.086756416
251	0xbe7e49a9	-0.24832787
252	0x3e781546	0.24226865
253	0x3d72a506	0.05923941
254	0x3ea54f55	0.32287088
255	0xbea305eb	-0.31840453

mlp_extractor.policy_net.0.bias f4 [32]
0	0x3e1b3922	0.15158513
1	0x3db2a45f	0.087227575
2	0x3e1f9666	0.15584716
3	0xbc1e0f27	-0.009647167
4	0x00000000	0.0
5	0x3dc63f2d	0.096800186
6	0x00000000	0.0
7	0x00000000	0.0
8	0x3d2ebaf6	0.04265877
9	0xbb971fd8	-0.0046119504
10	0xbdafbcc5	-0.08580927
11	0x391022ce	0.00013745876
12	0x39344eb8	0.00017195463
13	0x3c1887b7	0.009309701
14	0x3e110f65	0.14166029
15	0x3d561106	0.05226233
16	0x3c3038e6	0.010755753
17	0xbde9ab18	-0.11409587
18	0x3d8e08d4	0.069352776
19	0xbe743686	-0.23848924
20	0x3bf5ff77	0.0075072604
21	0x00000000	0.0
22	0x3d30e15e	0.043183677
23	0x3e0c8092	0.1372092
24	0xbd8c9153	-0.06863656
25	0x3e146d34	0.14494783
26	0xbd774318	-0.06036672
27	0x3da44fc6	0.08023028
28	0xbe2193dd	-0.15779062
29	0xbc1ecf4a	-0.009692976
30	0xbc9299db	-0.01789563
31	0x00000000	0.0

mlp_extractor.policy_net.2.weight f4 [32, 32]
0	0xbe7d8288	-0.24756825
1	0x3cfb709e	0.030693348
2	0x3cb068d9	0.02153437
3	0x3d83cee0	0.06435943
4	0x3ea1b1f5	0.31581083
5	0x3e183243	0.14862923
6	0xbe51003f	-0.2041025
7	0xbdb79b45	-0.08965162
8	0xbe329295	-0.17438729
9	0xbddb016c	-0.106936306
10	0x3eb9a894	0.36261427
11	0x3dfa5e16	0.12224977
12	0xbd71d43b	-0.05904029
13	0xbe04fc4f	-0.12986873
14	0xbe9c6d82	-0.30552298
15	0x3d5f9f83	0.05459548
16	0xbdf3f16a	-0.119112805
17	0xbe964849	-0.29352024
18	0x3ed05023	0.4068614
19	0x3d77ed89	0.060529266
20	0x3e977eb1	0.29588845
21	0x3e138027	0.14404355
22	0xbebb6357	-0.36599228
23	0xbf55d208	-0.8352361
24	0x3dace6e3	0.08442476
25	0xbdeced41	-0.1156869
26	0xbec3d82c	-0.38250864
27	0x3e0337a0	0.12814188
28	0xbe42b952	-0.19016007
29	0x3d8bcb64	0.06825903
30	0x3dc4f83a	0.09617658
31	0x3df1f293	0.118138455
32	0xbd0b9208	-0.034074813
33	0xbe4bfbab	-0.19920222
34	0x3e902c14	0.2815863
35	0x3e5828eb	0.21109359
36	0xbe52d92d	-0.20590658
37	0xbe9305b6	-0.28715295
38	0x3eac714e	0.33680195
39	0xbedfe898	-0.43732142
40	0xbe27ff64	-0.16406018
41	0x3eb14625	0.3462383
42	0xbdaea949	-0.08528382
43	0x3ed6550d	0.41861764
44	0xbef7e575	-0.4841725
45	0xbdb2e919	-0.08735866
46	0xbe5b9d1c	-0.21446651
47	0x3f0d01f3	0.550811
48	0xbde96ee6	-0.11398105
49	0xbe9cc9c6	-0.3062269
50	0xbd61f46c	-0.05516474
51	0xbcf9b544	-0.030481942
52	0xbea5d832	-0.32391506
53	0xbe03e827	-0.12881528
54	0xbe182d68	-0.14861071
55	0xbd8e47b2	-0.069472685
56	0x3e03a290	0.12854981
57	0xbe994fe3	-0.2994376
58	0xbdd0807a	-0.10180755
59	0xbe471ddd	-0.19444986
60	0x3e50ec93	0.20402746
61	0xbe7bab07	-0.2457696
62	0xbcbb1cbd	-0.022840852
63	0xbe058fff	-0.13043211
64	0xbda7ecdd	-0.08199475
65	0x3e6a6ae8	0.22892344
66	0xbe7a2801	-0.24429323
67	0x3dce098e	0.10060416
68	0x3ec97695	0.39348283
69	0xbf10aa21	-0.56509596
70	0xbe375800	-0.17904663
71	0xbe0fa127	-0.14026318
72	0xbde9e986	-0.11421494
73	0x3d3f4e32	0.046705432
74	0xbea7ada1	-0.32749656
75	0xbd6e1bc8	-0.058131963
76	0xbe17d2ad	-0.1482646
77	0xbf0208e7	-0.50794834
78	0x3e70542d	0.2346961
79	0x3e1d9123	0.15387397
80	0x3e26e28b	0.16297357
81	0x3ef7fdf7	0.48435947
82	0x3ebc5926	0.36786765
83	0xbf040614	-0.51571774
84	0xbe140c7d	-0.14457889
85	0x3e2d0370	0.16895843
86	0xbd91496c	-0.07094082
87	0xbd471ebb	-0.04861329
88	0x3dffbc08	0.12487036
89	0x3d922174	0.07135287
90	0x3e83293c	0.25617397
91	0x3cf75bdf	0.030195175
92	0xbe4e0448	-0.2011882
93	0xbe8c4c19	-0.27401808
94	0x3e064b83	0.13114743
95	0x3b218f8e	0.0024652216
96	0xbd3eee1d	-0.0466138
97	0xbd5b65ac	-0.05356376
98	0xbe86232f	-0.26198718
99	0xbdb05b1f	-0.0861113
100	0xbe00a989	-0.12564673
101	0x3e0ca845	0.13736065
102	0xbc9dfa75	-0.019284466
103	0xbf2c5343	-0.6731455
104	0xbe34f0a0	-0.17669916
105	0xbed4e9e9	-0.4158471
106	0xbeaa74a8	-0.33292127
107	0x3e3ae8b5	0.18252833
108	0xbda23ac8	-0.07921368
109	0xbe277eb0	-0.16356921
110	0x3e9399d9	0.28828314
111	0xbe3b5a62	-0.18296197
112	0xbeb57e56	-0.3544795
113	0xbe3dcdd4	-0.18535548
114	0x3d7a52a4	0.06111397
115	0x3edc7eae	0.430654
116	0x3e8a934b	0.270655
117	0xbd8d5418	-0.06900805
118	0xbca41fb7	-0.020034654
119	0x3da4379d	0.0801842
120	0x3c39c20f	0.011337771
121	0xbdf500ee	-0.11963068
122	0x3eef8148	0.4677832
123	0xbe964062	-0.29345995
124	0xbeb2a4d2	-0.34891373
125	0x3d561909	0.05226997
126	0x3e6e0398	0.23243558
127	0x3d7020e4	0.058625117
128	0x3efc76bc	0.49309337
129	0x3db50e5b	0.08840629
130	0xbeed0c35	-0.46298376
131	0xbeaad2e5	-0.33364025
132	0xbbc94e0a	-0.006143336
133	0x3ebcbc3c	0.3686236
134	0x3ef14cfe	0.47129053
135	0xbd67bec6	-0.05657842
136	0xbf0447bd	-0.51671964
137	0xbe0f4e59	-0.13994731
138	0xbe71f36d	-0.23628016
139	0xbe0bce31	-0.13652875
140	0x3e989b02	0.29805762
141	0xbdd43826	-0.10362272
142	0xbe5a751c	-0.21333736
143	0x3dc798f4	0.0974597
144	0x3db09023	0.08621242
145	0x3e9a2888	0.30109048
146	0x3eace96f	0.33771846
147	0xbdd115ef	-0.102092616
148	0xbe613e95	-0.2199653
149	0xbec16c5e	-0.3777799
150	0xbe5fbf49	-0.21850313
151	0x3dc6e595	0.09711758
152	0xbc94484c	-0.01810088
153	0xbe5a4362	-0.21314767
154	0xbe7bb6a1	-0.24581386
155	0x3e130389	0.14356817
156	0xbd043422	-0.03227628
157	0xbd49020b	-0.049074214
158	0xbe1d0854	-0.15335208
159	0x3cacac59	0.021078276
160	0xbce2d4ef	-0.027689425
161	0x3e7a1fea	0.24426237
162	0x3e1939e8	0.14963496
163	0x3e9fc138	0.31202102
164	0xbde4256e	-0.11139952
165	0x3d18146a	0.037128843
166	0xbed904a5	-0.42386356
167	0xbea3fbdc	-0.3202809
168	0xbe354ac6	-0.17704305
169	0xbe8930c2	-0.26795012
170	0xbc1504dd	-0.009095398
171	0xbde2f250	-0.11081374
172	0x3e5e10fe	0.2168617
173	0x3f1ac241	0.6045266
174	0x3d8450c9	0.06460721
175	0x3dce9790	0.10087502
176	0x3db4aea7	0.08822375
177	0x3e4bcb74	0.1990183
178	0x3e91e7a2	0.28497034
179	0x3ca7cc27	0.02048309
180	0xbd953a89	-0.07286555
181	0x3ebb0fa0	0.36535358
182	0x3b55cb85	0.0032622528
183	0x3dff5553	0.12467446
184	0x3d475169	0.048661623
185	0xbf1eb0e1	-0.61988646
186	0xbc685487	-0.014180309
187	0x3e3a2146	0.18176755
188	0xbd12fc7b	-0.035885315
189	0x3e0f7390	0.14008927
190	0xbefebcc0	-0.4975338
191	0xbd7a15bd	-0.061055887
192	0x3dfa8dc5	0.12234072
193	0x3ece1dcf	0.40257117
194	0xbec32338	-0.38112807
195	0xbd32e711	-0.043677393
196	0xbdd306b5	-0.10304014
197	0xbefa13be	-0.48843187
198	0xbe2a4788	-0.1662885
199	0xbdd33309	-0.103124686
200	0x3e6c8c56	0.23100409
201	0xbe9444a0	-0.28958607
202	0x3e5884f5	0.21144469
203	0x3e78f145	0.24310787
204	0x3ea9733c	0.3309573
205	0x3d7eeec6	0.06223943
206	0xbe9e0c13	-0.30868587
207	0x3e8416f4	0.25798762
208	0xbe9ca798	-0.30596614
209	0x3ea4a450	0.3215661
210	0xbead5910	-0.33857012
211	0xbd24e4f4	-0.04025741
212	0x3efe5460	0.49673748
213	0xbe09c4f2	-0.13454035
214	0xbe4a9c35	-0.19786151
215	0x3d498d81	0.049207214
216	0x3e92ff33	0.28710327
217	0xbda8fddd	-0.082515456
218	0x3d721c5f	0.059109088
219	0xbdc89bc3	-0.09795334
220	0x3e7e9a6f	0.24863599
221	0x3d8c4faa	0.06851132
222	0xbea35641	-0.31901744
223	0x3e1bf68a	0.15230766
224	0x3e98d7ef	0.29852244
225	0x3e0034d6	0.12520155
226	0x3caef6a2	0.021357838
227	0xbf0aac73	-0.54169387
228	0xbea39659	-0.31950644
229	0xbe8daa36	-0.27668923
230	0xbdba77ec	-0.091049045
231	0x3e79141f	0.24324082
232	0x3e20627e	0.15662572
233	0xbeaa37da	-0.33245736
234	0xbe9af001	-0.30261233
235	0xbe45decb	-0.1932327
236	0xbe84a2e3	-0.25905523
237	0x3b2da48b	0.002649578
238	0x3ea0c2d6	0.31398648
239	0x3d1a5cea	0.037686266
240	0xbe941032	-0.28918606
241	0xbdd8b352	-0.10581078
242	0xbdcad9ed	-0.09904847
243	0xbdf6ce56	-0.12051074
244	0xbd2d2133	-0.04226799
245	0x3e8581fe	0.2607574
246	0xbf00033c	-0.50004935
247	0xbecafd56	-0.39646405
248	0xbe816794	-0.25274336
249	0xbe825204	-0.25453198
250	0x3d9b5b3f	0.07585763
251	0x3ea43896	0.32074422
252	0x3e3a54db	0.18196432
253	0xbd883ef6	-0.06652634
254	0x3e165c05	0.1468354
255	0xbef00af6	-0.46883363

mlp_extractor.policy_net.2.bias f4 [32]
0	0xb6c9e37b	-6.016749e-06
1	0xbd7a0c3a	-0.061046816
2	0x3b622356	0.0034505925
3	0xba911278	-0.0011068126
4	0x3e00b1a2	0.12567762
5	0xbdba1f6f	-0.09088027
6	0x3c01326b	0.007885556
7	0xbd984df7	-0.074367456
8	0x3c976f8f	0.018485812
9	0xbd697109	-0.056992564
10	0x3e94d98f	0.29072234
11	0xbd02b658	-0.031912178
12	0x3e0088c7	0.12552176
13	0x3b0b9a56	0.0021301708
14	0x3c64f055	0.013973315
15	0xbcc2d77e	-0.023784395
16	0x3e3775f9	0.17916097
17	0xbd4e19bf	-0.050317522
18	0xbb9900e8	-0.0046692975
19	0x3c31a363	0.010842177
20	0x3c58abe7	0.013224578
21	0x00000000	0.0
22	0x3c30746f	0.010769947
23	0x3bb1685b	0.0054140515
24	0xbc924ccb	-0.017858883
25	0x3e2479c5	0.16062076
26	0x3c7870d2	0.015163617
27	0x3e588d05	0.21147545
28	0xbc026977	-0.007959715
29	0xbced8dca	-0.028998274
30	0xbbc5407a	-0.006019649
31	0xbb772ec3	-0.003771708

mlp_extractor.value_net.0.weight f4 [32, 11]
0	0xbe3fdb8c	-0.18736094
1	0xbede4e42	-0.4341908
2	0xbd08974a	-0.033347405
3	0xc024d239	-2.575331
4	0xbfdac843	-1.7092365
5	0x3df961e2	0.12176873
6	0x3e8158e1	0.25263122
7	0x3e740c96	0.23832926
8	0x3dae1ad7	0.08501213
9	0x3dc46759	0.095900245
10	0xbe1c7478	-0.15278804
11	0x3f1f8050	0.62305164
12	0x3d26fc98	0.040768236
13	0xbcea247f	-0.028581856
14	0xc06bc4b6	-3.6838813
15	0xbfd7d047	-1.6860436
16	0x3e436968	0.19083178
17	0x3e1727b2	0.14761236
18	0x3ef56cb8	0.47934508
19	0x3ed3f001	0.41394046
20	0x3e36bab0	0.17844653
21	0x3dc66db8	0.09688896
22	0xbebc850b	-0.36820254
23	0xbedf2cbb	-0.43588814
24	0xbe7baa1a	-0.24576607
25	0xbe9777ee	-0.29583687
26	0xbefca85f	-0.49347207
27	0xbefaf60c	-0.49015844
28	0x3d460b05	0.048350353
29	0xbc8dcaa6	-0.017308544
30	0x3eef4bd7	0.4673755
31	0xbe246060	-0.16052389
32	0xbda2fd8d	-0.07958517
33	0xbe9baf6d	-0.30407277
34	0x3f8f76ed	1.1208168
35	0xbe77e45f	-0.2420821
36	0x3cf34db4	0.029700138
37	0xbf64e7cc	-0.89416194
38	0xbdbbc8fb	-0.09169193
39	0xbefa8a92	-0.48933846
40	0xbb24a266	-0.002512121
41	0x3e314c60	0.17314291
42	0x3db83a79	0.08995528
43	0x3eba527f	0.36391065
44	0xbe90e033	-0.2829605
45	0x3e0b0021	0.13574268
46	0xbc116af4	-0.008875597
47	0xc041e07b	-3.0293262
48	0xc0135069	-2.3017828
49	0x3d6119c3	0.05495621
50	0x3d63660c	0.05551724
51	0x3eb47dc5	0.35252205
52	0x3ce7afca	0.028282065
53	0xbdda096e	-0.1064633
54	0x3d652425	0.055942673
55	0xbc65ed07	-0.0140335625
56	0x3d4c48e6	0.04987421
57	0x3d4ac251	0.04950172
58	0x3f4779ba	0.77920115
59	0x3ce317b3	0.027721262
60	0xbdd87211	-0.105686314
61	0x3d98deb6	0.07464354
62	0xbd88fb84	-0.06688598
63	0xbd933f8e	-0.071898565
64	0x3e5aee15	0.21379884
65	0x3f2bd934	0.671283
66	0x3e1aad1c	0.15105098
67	0x3e4ab66e	0.19796154
68	0xbbb4d141	-0.005518109
69	0xbfb12579	-1.3839561
70	0x3fe54daa	1.7914326
71	0xbd450a8f	-0.048105773
72	0xbb12355a	-0.0022309632
73	0x3c1655ca	0.009175727
74	0x3cc658f9	0.024212347
75	0x3b26fc06	0.0025479808
76	0xbc2db90d	-0.010603202
77	0xbe8d0da9	-0.27549484
78	0xbdbf2e9a	-0.093350604
79	0xbf07edd6	-0.53097284
80	0x3dd42e25	0.10360364
81	0x3ddf4426	0.1090167
82	0xbd923ccd	-0.07140503
83	0x3dfc5438	0.12320751
84	0x3e317a03	0.173317
85	0xbc9beb9f	-0.019033251
86	0xbc507c2c	-0.012724917
87	0xbeddfb81	-0.43355945
88	0x3db2af31	0.08724821
89	0x3ee3713c	0.44422328
90	0xbd197f13	-0.037474703
91	0xbfb8c38f	-1.443468
92	0xbea1c9f4	-0.3159939
93	0x3e563fca	0.20922771
94	0x3ee95bbe	0.45577806
95	0xbdd8e9f8	-0.10591501
96	0x3e88b17f	0.2669792
97	0xbe087834	-0.13327104
98	0x3d2854f5	0.041096646
99	0x3d8547aa	0.065078095
100	0x3eaca5f0	0.3372035
101	0x3dfe4a29	0.12416489
102	0x3fe81d98	1.8134031
103	0x3fe5d677	1.7956074
104	0xbd511a84	-0.051050678
105	0x39fea0a3	0.0004856634
106	0xbc33e90e	-0.010980858
107	0x3eb72780	0.35772324
108	0x3f48db9e	0.7846011
109	0x3e7c08a0	0.24612665
110	0xbdf6a06b	-0.12042316
111	0x3e3ebb30	0.18626094
112	0xbe5654c1	-0.20930769
113	0xbeb07ec7	-0.34471723
114	0x3dd10522	0.10206057
115	0xbd9692b6	-0.07352202
116	0x3e798ef2	0.24370936
117	0xbe4a437d	-0.19752307
118	0x3ddfe9e0	0.1093328
119	0x3f020119	0.50782925
120	0x3ebb2c34	0.36557162
121	0xbf470dda	-0.7775551
122	0x3e92db9e	0.2868318
123	0x3d84198e	0.06450187
124	0xbebd6708	-0.3699267
125	0xbe5e06a1	-0.21682216
126	0xbd935ac9	-0.0719505
127	0xbe40ac96	-0.18815836
128	0x3df28560	0.118418455
129	0x3e33dcf4	0.17564756
130	0x3e43c25d	0.19117112
131	0x3e8efcdb	0.27927288
132	0x3f00909b	0.5022065
133	0xbd183101	-0.03715611
134	0x3e6bcc98	0.23027265
135	0xc006bbd8	-2.105215
136	0xc0228661	-2.5394518
137	0x3e6845f5	0.22682936
138	0xbd26782f	-0.04064196
139	0xbe8da730	-0.27666616
140	0x3dd76143	0.10516598
141	0xbbe6fdac	-0.007049283
142	0xbed9ef81	-0.4256554
143	0x3ef8a29c	0.4856156
144	0xbf072749	-0.5279432
145	0xbe9eaabb	-0.30989632
146	0x3eaaf118	0.33387065
147	0xbd0709dd	-0.03296839
148	0x3d28e757	0.041236248
149	0xbe9c1eb6	-0.3049218
150	0x3d8a7931	0.06761397
151	0xbe896012	-0.26831108
152	0xbe8432b9	-0.25819948
153	0x3d0bc0eb	0.034119528
154	0x3e6a503c	0.2288217
155	0x3f0d11d0	0.55105305
156	0xbe61af8e	-0.22039625
157	0xbf43fafa	-0.76554835
158	0xbf7dfe5d	-0.9921625
159	0x3ea23485	0.31680694
160	0x3ea07030	0.31335592
161	0x3f21c91d	0.631975
162	0xbdc88fe2	-0.097930685
163	0x3dab07a1	0.083510645
164	0xbe56f5dd	-0.20992227
165	0xbda5a7ef	-0.080886714
166	0xbc6b5408	-0.014363296
167	0x3c1dd167	0.009632445
168	0x4015fd00	2.343567
169	0x40085257	2.1300256
170	0x3cbc0b00	0.022954464
171	0x3dbfa2f9	0.093572564
172	0x3ee271c4	0.4422742
173	0x3d4446aa	0.047918953
174	0x3cef97a5	0.029247114
175	0x3e631038	0.22174156
176	0x3e9690af	0.2940726
177	0x3f3e9e39	0.7446018
178	0xbc878577	-0.016543133
179	0xbfc806b2	-1.5627043
180	0xbfdfdc75	-1.7489153
181	0x3e127b4d	0.14304848
182	0x3e63b90f	0.22238563
183	0x3e8f6e44	0.28013813
184	0x3f041e4c	0.5160873
185	0x3f279c01	0.6547242
186	0x3d76af77	0.06022593
187	0xbda2535a	-0.07926054
188	0x3f047f37	0.51756614
189	0x3ed27da1	0.41111472
190	0xbfd6d796	-1.6784542
191	0xc00d1c2d	-2.2048447
192	0x3ea5132c	0.3224119
193	0x3d8ac761	0.0677631
194	0xbdb2fa9d	-0.08739207
195	0xbd7ad821	-0.061241273
196	0xbe4372e0	-0.1908679
197	0x3b684c1f	0.0035445762
198	0x3efaeb79	0.49007776
199	0x3db5a6ff	0.088697426
200	0xbccd9cab	-0.02509912
201	0x3e99322d	0.29921094
202	0xbe64ea98	-0.22355115
203	0xbdff6b5c	-0.12471649
204	0xbe033e97	-0.12816845
205	0xbe2ccdcd	-0.16875382
206	0xbedc5ff3	-0.43041953
207	0xbee2c06f	-0.4428744
208	0xbe8fe494	-0.2810408
209	0x3f2be520	0.6714649
210	0x3ec77e4b	0.3896354
211	0xbd4b446c	-0.0496258
212	0x3e7a7640	0.24459171
213	0xbe6d20ac	-0.23156995
214	0xbd8ca5b8	-0.06867546
215	0xbe05e5e2	-0.13075975
216	0xbdc6dc64	-0.09710005
217	0xbe2acc96	-0.16679606
218	0xbe365d67	-0.17809068
219	0xbea75202	-0.32679754
220	0x3e388fcd	0.18023606
221	0x3e264e77	0.1624087
222	0xbe1b60be	-0.15173623
223	0xbfeaba8e	-1.8338182
224	0xbfa1394e	-1.2595613
225	0xbe19e07b	-0.15027039
226	0xbc4ed188	-0.012623198
227	0x3cbba446	0.02290548
228	0x3eac8413	0.33694515
229	0x3d5b9429	0.053608093
230	0x3ee788ec	0.4522165
231	0x3dd36af4	0.10323134
232	0x3f0389d0	0.5138216
233	0x3cb30a27	0.021855427
234	0x4082c785	4.0868554
235	0x401adda6	2.4197783
236	0x3db8fa40	0.090321064
237	0x3cb5334f	0.022119192
238	0x3cb10916	0.021610778
239	0x3e150cc9	0.14555658
240	0xbbf8e1f2	-0.007595294
241	0xbdadda1a	-0.08488865
242	0x3e579456	0.2105268
243	0xbe872da4	-0.2640201
244	0xbe90379e	-0.28167433
245	0xbf277015	-0.654054
246	0x3d40edd3	0.047101807
247	0xbd70326f	-0.058641847
248	0xbc945823	-0.018108433
249	0xbd1eabd5	-0.03873809
250	0xbdd5f472	-0.10447015
251	0xbd997920	-0.07493806
252	0x3bbd11fc	0.005769966
253	0x3d3a506c	0.045486853
254	0x3ebd2d81	0.3694878
255	0x3e40d0e9	0.18829693

mlp_extractor.value_net.0.bias f4 [32]
0	0xbfed0655	-1.8517557
1	0x3f4f148f	0.80890745
2	0x00000000	0.0
3	0x3f96b376	1.1773517
4	0x3fefb8c6	1.8728263
5	0x401b677f	2.428192
6	0x3f2b400a	0.6689459
7	0xbd95a32c	-0.07306513
8	0xbf44a30c	-0.7681129
9	0xbfd41b43	-1.657082
10	0x3f617eec	0.8808429
11	0xbeac7709	-0.33684567
12	0x4012766c	2.288478
13	0x00000000	0.0
14	0x3f14bc83	0.58100146
15	0xbfe5384e	-1.7907808
16	0x400c881d	2.1958077
17	0x40101ead	2.2518723
18	0x3cb4f127	0.022087647
19	0x3e2f379a	0.17111054
20	0xbf8eab0c	-1.1145949
21	0xbffd3ae5	-1.9783598
22	0x00000000	0.0
23	0xbfc4c549	-1.5372707
24	0x3e185b76	0.1487864
25	0x3e2ef198	0.17084348
26	0x3e499345	0.19685085
27	0x00000000	0.0
28	0x3e847221	0.25868323
29	0xbfafae76	-1.3725116
30	0x00000000	0.0
31	0x3f8d677a	1.1047204

mlp_extractor.value_net.2.weight f4 [32, 32]
0	0x3f2e2210	0.68020725
1	0x3f045a8d	0.5170067
2	0x3d5b5617	0.0535489
3	0xbed400be	-0.41406816
4	0x3daf0656	0.0854613
5	0xbe8d1fd6	-0.2756335
6	0x3e3b773a	0.183072
7	0xbda8a1fa	-0.082340196
8	0x3ec95a30	0.3932662
9	0x3f2f520c	0.6848457
10	0xbc9002c7	-0.01757945
11	0xbcbc6aa8	-0.023000076
12	0xbe4debec	-0.20109528
13	0xbf078cac	-0.52949023
14	0xbdf7ee83	-0.121060394
15	0x3ec1ace1	0.3782721
16	0xbede68db	-0.43439373
17	0x3e348517	0.17628895
18	0x3e579101	0.21051408
19	0xbe8cb93e	-0.2748508
20	0xbd19d32e	-0.037554912
21	0xbdb43d0c	-0.08800706
22	0xbe25bfd3	-0.16186456
23	0x3ebdfdb9	0.37107638
24	0x3d74dc23	0.05978025
25	0x3f1fd3d2	0.6243259
26	0xbd71a67f	-0.058996674
27	0x3debb176	0.11508457
28	0xbe0e2d7a	-0.13884535
29	0x3eb28ad1	0.34871534
30	0xbe3896d0	-0.1802628
31	0xbd38091f	-0.044930574
32	0xbe1b0cc2	-0.15141585
33	0xbf02aee7	-0.5104813
34	0x3e07b4d7	0.13252579
35	0x3e8b170d	0.27166024
36	0xbec5a31e	-0.3860101
37	0x3b1fa083	0.0024357147
38	0xbe5c09a6	-0.21488056
39	0xbe83e2ae	-0.2575888
40	0xbeb800df	-0.35938165
41	0x3db0955e	0.086222395
42	0x3da96507	0.082712226
43	0x3f4d6ab1	0.80240923
44	0xbf360b65	-0.71111137
45	0x3e2ed838	0.17074668
46	0xbecb3a9e	-0.3969316
47	0x3ea11307	0.3145983
48	0x3e6dbe03	0.23217015
49	0x3ea6ac52	0.32553345
50	0xbe11c888	-0.14236653
51	0xbebbdd5f	-0.3669233
52	0x3f093f9a	0.53612673
53	0x3eb741e3	0.35792455
54	0x3e826f54	0.25475562
55	0x3e29ebd4	0.16593868
56	0xbe2b8e0a	-0.16753402
57	0xbdd04483	-0.101693176
58	0x3e6b7011	0.22991969
59	0x3d8241d1	0.0636021
60	0x3d5b886f	0.05359691
61	0xbe674d25	-0.22588022
62	0xbef5abef	-0.47982737
63	0xbebb2f57	-0.36559555
64	0xbb89e162	-0.004207776
65	0x3df714b5	0.120644964
66	0xbe67172c	-0.22567433
67	0xbe17c5b1	-0.14821507
68	0x3c0dac97	0.008647106
69	0x3d396561	0.045262698
70	0xbe1c5816	-0.15267977
71	0xbeadfff9	-0.33984354
72	0xbd6a6f95	-0.05723532
73	0x3f29d1a9	0.6633554
74	0xbe1badc9	-0.15203013
75	0x3c6b043c	0.014344271
76	0x3edad884	0.42743313
77	0xbd65dbfa	-0.05611799
78	0x3d2f5965	0.042809863
79	0x3f0a7d63	0.54097575
80	0xbd948ab1	-0.07253016
81	0x3e142d34	0.14470369
82	0x3ebe4f97	0.37170097
83	0x3e39c8b8	0.18142974
84	0xbbb2ec91	-0.00546033
85	0x3ccffef2	0.025390122
86	0x3e9799cf	0.29609534
87	0x3ebb2e97	0.36558983
88	0x3e24a1a6	0.16077289
89	0xbed1cdfb	-0.40977463
90	0xbe42d91f	-0.19028138
91	0x3e81830e	0.252953
92	0x3edaaa39	0.42707995
93	0x3efd58c1	0.49481776
94	0xbd923bb6	-0.07140295
95	0xbf09aae3	-0.5377638
96	0x3d2fbe7a	0.042906262
97	0xbe7eb6d6	-0.24874434
98	0xbeb8bf13	-0.36083278
99	0x3eb4ecae	0.35336822
100	0xbf0d63db	-0.5523049
101	0x3ccc8634	0.024966337
102	0xbe006c02	-0.12541202
103	0x3d7d0ac4	0.061777845
104	0xbe19d030	-0.15020823
105	0x3df15913	0.11784568
106	0xbe6620ac	-0.22473401
107	0xbd4b5fde	-0.049651973
108	0xbd313e6e	-0.04327243
109	0xbec72a60	-0.38899517
110	0xbf0bc66f	-0.5459966
111	0x3cb9f947	0.022701873
112	0xbe3e00e1	-0.18555023
113	0xbf02b808	-0.5106206
114	0xbdab9f10	-0.08379948
115	0xbe19db47	-0.15025054
116	0x3cd86f92	0.026420388
117	0xbdfa50de	-0.122224554
118	0xbdd3beb7	-0.1033911
119	0xbd57abb9	-0.052654
120	0xbe758983	-0.23978238
121	0x3de89383	0.11356261
122	0xbd5b1a28	-0.05349174
123	0xbefeeb77	-0.4978902
124	0x3d03322f	0.03203028
125	0x3d87ec72	0.06636895
126	0x3e423ebe	0.18969247
127	0xbea56652	-0.32304627
128	0x3eb41c40	0.35177803
129	0x3d1b1917	0.037865724
130	0x3c3bacce	0.011454774
131	0x3df0fe65	0.11767272
132	0xbe9aefab	-0.30260977
133	0x3c9515d2	0.018198881
134	0x3eab6844	0.33477986
135	0xbe89219b	-0.2678345
136	0xbe1a2e5d	-0.15056749
137	0xbe0e2049	-0.13879503
138	0x3e8fcea5	0.28087345
139	0xbd94514e	-0.0724207
140	0x3c776f14	0.015102167
141	0x3f196cd6	0.59931695
142	0xbe250c3d	-0.1611795
143	0x3f059971	0.5218726
144	0x3ee38df7	0.44444248
145	0xbe6dd534	-0.23225862
146	0x3eade9d1	0.3396745
147	0x3c5254a2	0.012837561
148	0x3ed1a147	0.40943357
149	0x3e35515b	0.17706816
150	0x3e34143b	0.17585842
151	0xbe2196ff	-0.15780257
152	0x3df5c2f4	0.12000075
153	0x3f04c48c	0.51862407
154	0xbeb35d60	-0.35032177
155	0xbdbcc646	-0.09217505
156	0x3f24c6e8	0.64366007
157	0x3e85e6fe	0.26152796
158	0x3de41bd8	0.11138123
159	0x3f1f6330	0.62260723
160	0x3eee8b53	0.4659067
161	0x3eaeb0ac	0.34119165
162	0x3e5db887	0.21652423
163	0x3d0c9746	0.034323953
164	0xbe60dfcf	-0.21960376
165	0xbe8511a5	-0.25990024
166	0x3ed3f51d	0.41397944
167	0xbe37f9eb	-0.1796643
168	0x3e2f8e4c	0.17144126
169	0xbeb440c7	-0.3520567
170	0x3d919f76	0.07110493
171	0x3e3637a4	0.17794663
172	0x3eaeaf70	0.34118223
173	0xbda0df51	-0.07855094
174	0x3ec28a0f	0.37995955
175	0xbee01df9	-0.43772867
176	0xbc2d2058	-0.010566793
177	0xbd2d65c1	-0.04233337
178	0x3f0e39c8	0.5555692
179	0x3e9ac892	0.30231148
180	0xbd7dea02	-0.061990745
181	0xbe2516b6	-0.16121945
182	0x3eb8432b	0.35988745
183	0xbd9b488a	-0.07582195
184	0xbd806f8e	-0.06271277
185	0x3e9b13fd	0.30288687
186	0x3ca28d14	0.019842662
187	0x3e3bc8b0	0.18338275
188	0x3de03012	0.10946669
189	0xbea0086a	-0.3125642
190	0x3dff22d5	0.124578156
191	0x3e8d7326	0.27626914
192	0xbec8863c	-0.39164913
193	0x3ea2a867	0.31769106
194	0xbda6b6be	-0.08140324
195	0x3e12f8c8	0.14352715
196	0x3d9bd198	0.07608336
197	0x3e956d0f	0.29184768
198	0x3df405ca	0.11915167
199	0xbdb24b94	-0.08705822
200	0xbe94214d	-0.28931656
201	0xbed81c0a	-0.42208892
202	0xbdcb0381	-0.09912778
203	0xbe2b76a3	-0.16744475
204	0x3f268aea	0.65055716
205	0xbe1f74de	-0.15571925
206	0x3deb8864	0.11500624
207	0x3defffe5	0.1171873
208	0x3e932ee3	0.2874671
209	0x3f269383	0.65068835
210	0xbd87fb0c	-0.0663968
211	0x3ddc94da	0.10770579
212	0x3e964198	0.2934692
213	0xbeac2702	-0.3362351
214	0x3e3075a7	0.17232381
215	0x3d368131	0.0445568
216	0x3ee799c4	0.452345
217	0x3f020844	0.5079386
218	0xbc373d3a	-0.011184031
219	0xbe06f147	-0.13177978
220	0xbc3e0538	-0.011597924
221	0xbe97f752	-0.29680878
222	0xbf03498a	-0.51284087
223	0x3ef08cdc	0.46982467
224	0x3f60841b	0.87701577
225	0x3ec9d7a1	0.39422324
226	0xbe15d5a7	-0.14632283
227	0xbdd8583e	-0.10563706
228	0x3f159423	0.58429164
229	0xbe0fb1ca	-0.14032665
230	0xbf05303b	-0.5202672
231	0x3dc3713d	0.09543083
232	0x3e38088e	0.17972013
233	0xbf0bf96f	-0.5467748
234	0x3e181427	0.14851438
235	0x3f373555	0.71565753
236	0x3e153f0a	0.14574829
237	0xbdcfbf0c	-0.10143861
238	0xbe8ab6d1	-0.27092603
239	0xbf883de2	-1.0643885
240	0x3eafebec	0.34359682
241	0x3e087243	0.13324837
242	0xbe8f3074	-0.27966654
243	0xbe910b6c	-0.28329027
244	0x3f0abc62	0.541937
245	0xbfbfce8c	-1.4984908
246	0x3e665de7	0.22496758
247	0xbe710f2c	-0.23540944
248	0x3e3b1e0f	0.18273185
249	0x3e74b07a	0.23895445
250	0x3e564749	0.2092563
251	0x3ef2b5d2	0.47404343
252	0xbd500f48	-0.050795823
253	0x3d9cd376	0.076575205
254	0x3dd38250	0.103275895
255	0xbf2535a6	-0.64534986

mlp_extractor.value_net.2.bias f4 [32]
0	0xbfe59f22	-1.7939188
1	0x3dd773fe	0.10520171
2	0xbfd3e3d8	-1.6553907
3	0xbabb268f	-0.0014278459
4	0x3fccc58c	1.5997787
5	0xbcb8d4ec	-0.022562467
6	0x400d1b1e	2.20478
7	0xbf31308e	-0.69214714
8	0xc0304b0e	-2.754581
9	0x400ae910	2.170475
10	0x3fdecff0	1.7407207
11	0x4010b0d4	2.2607927
12	0x400dd68a	2.2162194
13	0xbadd9ac4	-0.0016907086
14	0x3fd93fe2	1.697262
15	0xbbd5ddbf	-0.0065266783
16	0xbce870cc	-0.028374098
17	0xbfd27827	-1.6442918
18	0x4009401e	2.1445384
19	0xbf67d7ef	-0.90563864
20	0xc00076b3	-2.0072448
21	0x3f8c2f6d	1.0951973
22	0x3fe6d1d8	1.8032789
23	0xbb6cf398	-0.0036155935
24	0x4008729c	2.1319952
25	0x4002f91f	2.0464551
26	0x3eb46e30	0.35240316
27	0x400b558d	2.1770966
28	0x3ded2798	0.115798175
29	0xbd333f14	-0.043761328
30	0x400bb275	2.1827672
31	0xbd9129b3	-0.070880316

action_net.weight f4 [3, 32]
0	0xba6d5ab9	-0.0009054351
1	0xbd079ff5	-0.03311153
2	0xbdb0d6c3	-0.086347125
3	0x3b0ac197	0.0021172517
4	0x3aa9c18b	0.0012951357
5	0xbcbde807	-0.023181928
6	0x3e0b75ab	0.13619106
7	0xbddf9173	-0.10916414
8	0x3d0ead34	0.034833148
9	0x3c3ea8a0	0.011636883
10	0xbbb9f115	-0.005674491
11	0x3cf1a2b0	0.02949652
12	0x3d11c501	0.03558827
13	0x3d7ba962	0.061440833
14	0x3c8fdc05	0.017560968
15	0x3c663f80	0.0140532255
16	0x3c8134c9	0.01577224
17	0x3cdcd6d0	0.0269579
18	0xbd0d11ed	-0.034440923
19	0x3d7394bf	0.059468027
20	0xbe0015b4	-0.12508279
21	0xba99be3d	-0.0011729669
22	0xbd769073	-0.06019635
23	0x3d04b4eb	0.0323991
24	0x3d2c7135	0.04210015
25	0x3d719133	0.058976363
26	0xbcfd960b	-0.030955335
27	0x3d78c12e	0.060731106
28	0xbc916a46	-0.01775087
29	0x3bc6516b	0.0060521862
30	0x3c8e2dee	0.017355885
31	0x3d7f3557	0.06230673
32	0x3985e3b7	0.00025537398
33	0x3dcec07a	0.10095306
34	0xbb953415	-0.004553328
35	0x3cd06022	0.025436465
36	0xbdffe6f8	-0.12495226
37	0xbdfa31be	-0.12216519
38	0xbd1d696d	-0.03843062
39	0xbdbbd4e0	-0.09171462
40	0x3c9ac534	0.018892862
41	0xbbde6535	-0.006786967
42	0x3e39c02e	0.18139717
43	0x3d337daa	0.043821014
44	0x3ac135ca	0.0014740762
45	0x3d997e45	0.07494787
46	0xbdc87394	-0.0978767
47	0xbdd3932f	-0.103308074
48	0x3e29a1de	0.16565654
49	0xbe03a773	-0.12856846
50	0x3d8a091e	0.0674002
51	0x3e2de336	0.16981205
52	0x3e3e7128	0.18597853
53	0x381c2bc0	3.7234044e-05
54	0x3c529b5d	0.012854424
55	0x3cf4b5cd	0.029871846
56	0xbdc6535a	-0.09683867
57	0x3d554a2e	0.052072696
58	0xbc8160a4	-0.015793152
59	0x3dd77c40	0.10521746
60	0xbd51eff6	-0.051254235
61	0x3a1ab926	0.0005902223
62	0x3e826429	0.2546704
63	0xbc919c70	-0.01777479
64	0xb9cfa0a0	-0.00039601792
65	0x3d42763a	0.04747603
66	0x3d839981	0.06425763
67	0xbc3cfc75	-0.0115348
68	0x3e1de7af	0.15420412
69	0xbd7596cc	-0.059958264
70	0xbe09e997	-0.13468014
71	0x3d94165b	0.072308265
72	0xbdb216f3	-0.086957835
73	0xbcbc5e1c	-0.022994094
74	0xbd221ef3	-0.039580297
75	0xbd4feea8	-0.05076471
76	0x3d9bb5cc	0.076030344
77	0x3d3e5e59	0.046476696
78	0x3dcffc26	0.101555154
79	0xbd87c614	-0.06629577
80	0x3d07b85e	0.03313481
81	0x3c221c17	0.009894392
82	0x3c29dc1c	0.01036742
83	0xbd3bd90b	-0.045861285
84	0x3c860535	0.016359905
85	0x3b493cb8	0.0030706357
86	0xbcc2322d	-0.023705566
87	0xbd084471	-0.033268396
88	0x3d07ce8c	0.033155963
89	0x3d12350d	0.035695124
90	0x3d9d296b	0.076739155
91	0x3d87d183	0.06631758
92	0x3daa020a	0.0830117
93	0x3daac502	0.083383575
94	0x3d4b613f	0.049653288
95	0x3e136758	0.14394891

action_net.bias f4 [3]
0	0x3e55c1a5	0.20874651
1	0xbda552c0	-0.08072424
2	0x3d94381e	0.07237266

value_net.weight f4 [1, 32]
0	0x3f81240e	1.0089128
1	0xbf8fb47a	-1.1226952
2	0x3e9cf2f1	0.306541
3	0xbdf6072d	-0.120130874
4	0xbf0a9ab9	-0.5414234
5	0x3f4aa6fd	0.79161054
6	0xbecb4243	-0.3969899
7	0x3fcc0016	1.5937526
8	0x3fa3cd93	1.2797111
9	0xbf16a65b	-0.5884759
10	0xbfbb289f	-1.4621772
11	0xbf80fdb5	-1.0077425
12	0xbecba7fa	-0.39776593
13	0x3e1d923d	0.15387817
14	0xbfbec9b2	-1.4905303
15	0x3dc68eb2	0.09695186
16	0x3d27d332	0.040972896
17	0x3f2f434a	0.6846205
18	0xbf2ef519	-0.6834274
19	0x3fa93c55	1.3221537
20	0x3f09fcd5	0.53901416
21	0xbf940ead	-1.1566979
22	0xbfa9559f	-1.3229254
23	0x3e1b81cf	0.15186237
24	0xbea22d0f	-0.31675002
25	0xbf8d0531	-1.1017209
26	0xbf936b23	-1.151707
27	0xbf198715	-0.59971744
28	0x3f36605f	0.712408
29	0x3e60d374	0.21955663
30	0xbed4633a	-0.41481954
31	0x3eb40a06	0.35163897
